lightning_logs/version_0/checkpoints/epoch=18-step=35624.ckpt (torch, 222871 bytes, 6 tensors)

l1.weight f4 [64, 784]
000000 00 6d 29 bc 10 c1 13 3b 00 bb 5c bb a0 78 40 3c
       -0.010340929 0.0022545494 -0.0033680797 0.011747509
000010 f2 ba df 3c 4e 98 25 bc 73 0e c0 bc a8 6f d5 3b
       0.027310822 -0.010107113 -0.02344439 0.0065135546
000020 dc c4 10 3c 1e a3 b9 bc 60 e7 9d 3a 35 6d 8b bc
       0.008835997 -0.022660788 0.0012047105 -0.017019847
000030 e7 10 e1 bc b0 1d b0 bc 63 92 a1 bc e8 5b 88 3c
       -0.02747388 -0.021498531 -0.019723123 0.016645387
000040 a2 25 06 bd 9c d6 7e bc 68 64 a0 3b e8 34 8c bb
       -0.032750733 -0.015554097 0.004894782 -0.004278768
000050 b0 ae f4 bb 80 3f 74 bc 18 0b 9a 3b 7c 96 3d bc
       -0.0074671134 -0.014907718 0.0047010295 -0.011571523
000060 b5 bf 95 bc 0e c6 bc bc 56 df a8 3c 36 00 b1 3c
       -0.01827989 -0.023043659 0.020614307 0.021606546
000070 13 ce 0e 3d a2 06 b0 3c 98 23 43 bc e4 57 8c 3c
       0.034864496 0.021487538 -0.011910342 0.017131753
000080 44 02 07 bc 14 6f c1 3c 00 72 af 3c e4 49 04 bd
       -0.008240286 0.023612536 0.021416664 -0.03229703
000090 78 65 68 3c c2 af cb b9 0f 44 db 3c 05 64 d0 bc
       0.014184348 -0.00038850127 0.026765851 -0.025438318
0000a0 07 07 0c 3d cb 75 77 bb 61 df 0a 3d 68 23 2a 3c
       0.03418639 -0.003775942 0.033904437 0.010384418
0000b0 9a 7a c2 3c 48 dd 56 bc eb bf 33 bc 6f 37 e8 3c
       0.023740102 -0.013114281 -0.01097105 0.028346745
0000c0 f5 9b 4c 3c a9 0b e2 3c 28 b3 81 b9 fe 4e a7 bb
       0.012488355 0.02759345 -0.0002473828 -0.005105852
0000d0 27 3e 00 3d 78 51 fe bc 23 bc a5 bc 1d c9 01 3d
       0.031309273 -0.031044707 -0.020231312 0.031685937
0000e0 98 99 8c 3b 44 43 91 3c 93 0f 8c bc f8 75 34 3c
       0.0042907707 0.01773227 -0.01709727 0.011014454
0000f0 95 33 07 3d 22 b1 0c 3d a8 80 70 3c ac 67 ec 3c
       0.033008177 0.034348615 0.014679112 0.028858028
000100 b8 9c 93 3b d3 6f bc 3c 26 7b 4b 3c ea 85 53 3c
       0.0045047663 0.02300254 0.012419498 0.012910346
000110 3e 35 05 bd 53 38 b2 ba 7c e3 5c 3c 3c 4f b3 bc
       -0.03252148 -0.0013597108 0.013481971 -0.021888368
000120 9f d9 bb bc 15 2c ee 3c 1c e7 6c 3c 93 b4 10 bd
       -0.022930918 0.029073754 0.014459398 -0.03532846
000130 ed fa ea bc 7e 16 d5 bc 75 c2 07 bd 51 d0 ad bc
       -0.028684104 -0.026011702 -0.033144433 -0.021217497
000140 fc 42 03 3c 30 70 00 3d 14 93 5b 3c 28 00 f9 3b
       0.008011576 0.03135699 0.013401765 0.0075988956
000150 38 6f 51 3c 4a 62 2c bc 08 70 a1 bb 82 b7 9a 3c
       0.012782864 -0.010521481 -0.0049266852 0.018886331
000160 24 03 87 3c a0 f9 e5 bc ac 3e 9b bc 6c 43 d8 3b
       0.01648099 -0.028073132 -0.018950783 0.006599834
000170 41 5d 8e bb a3 0d fe bc 07 e4 76 3a a8 ba c5 bc
       -0.004344613 -0.031012362 0.0009418134 -0.024136856
000180 78 aa 4f bc 06 6e fe 3c 58 6d 66 3d 55 f2 c3 bb
       -0.01267492 0.031058323 0.056256622 -0.005979816
000190 39 bf 3e 3c 94 c2 0d bc 10 55 96 bc c3 bf f7 bc
       0.011642271 -0.008652348 -0.018351108 -0.030242806
0001a0 53 1e 2c 3c 34 38 7b bb 0e 9b d1 bc b3 bf 89 3c
       0.010505277 -0.003833306 -0.025586631 0.016815042
0001b0 c8 1f ff bc f0 f1 66 3c 33 5e f1 bc 1c 4f 27 bc
       -0.031143084 0.014095768 -0.029463863 -0.010211732
0001c0 9e f1 c2 bc ba 78 a5 bc 9b 8e f8 bc 20 d6 a0 3a
       -0.023796853 -0.020199168 -0.030341437 0.0012270845
0001d0 65 39 b2 3b c5 7d 8b 3c cd 03 ec 3c ee 2c ce bb
       0.005438971 0.017027745 0.028810406 -0.006291977
0001e0 ba 47 38 3d a2 4d c8 3a 63 14 75 3d 6f 80 09 3c
       0.04499028 0.0015281925 0.059833895 0.008392437
0001f0 5d 96 2b 3c 2f ad a3 3c 91 94 91 bc 3a de 2b bc
       0.010472861 0.019980041 -0.017771037 -0.010489995
000200 74 a7 4c bb 61 49 66 bc 5a e2 03 3c ea b4 e3 bc
       -0.003122774 -0.014055581 0.008049572 -0.027796227
000210 84 14 1d bd f4 a8 b2 bb ef c8 04 bd 35 27 77 bc
       -0.038349643 -0.0054522697 -0.032418188 -0.015085031
000220 45 e0 aa bc d1 83 b1 3c 52 71 04 3d a9 dc f1 3a
       -0.020858893 0.0216693 0.032334633 0.0018452603
000230 33 6b a8 bc f2 a5 1b bc 65 02 a7 3c 9b ab 6a bc
       -0.02055893 -0.009500014 0.020386884 -0.0143231405
000240 e8 66 dc bc a7 26 d2 3c 18 16 0c 3c 06 d5 2b 3d
       -0.026904538 0.025653196 0.008550189 0.0419512
000250 be cb 38 3b a0 0f 4e 3c 7f c2 24 3d be e1 23 3c
       0.0028197612 0.0125769675 0.04022455 0.010002552
000260 3d 39 a2 bc 12 2e 92 bc a3 29 1b bc e5 92 1d bc
       -0.019802684 -0.017844234 -0.009470376 -0.009617542
000270 22 eb 92 bc e4 ca 27 bd 4f 2f 38 bd f6 b1 a6 bc
       -0.017934386 -0.040964976 -0.044966992 -0.02034853
000280 bd 5a 81 bd d9 c4 29 bd c5 9c 26 bd 08 90 29 bb
       -0.06316135 -0.041447494 -0.04067685 -0.0025873203
000290 55 c7 bc bc 85 4a a7 bc b6 91 07 bd 17 2f f4 3c
       -0.023044268 -0.020421276 -0.033097945 0.02980761
0002a0 73 dd 0e bd e7 46 dd 3c 73 fd 66 3b 19 f1 c0 3b
       -0.03487916 0.027011348 0.0035246282 0.005888116
0002b0 40 b6 19 3d a1 dc 85 bb 52 0b ae 3c 21 49 48 bc
       0.037527323 -0.004085139 0.021245632 -0.012224467
0002c0 0a bc 20 bc 33 41 6d 3b 39 a8 8f bc 18 1f b5 bc
       -0.009810457 0.0036202192 -0.01753627 -0.022109553
0002d0 07 e7 6d bd 30 bb 8a bc 5e 64 72 bd 03 d8 54 bd
       -0.058081653 -0.016934961 -0.05917775 -0.051963817
0002e0 44 84 e7 bc d8 1f fd bc 6e b8 6b 3a 47 2a 83 bd
       -0.028261311 -0.030898973 0.0008992021 -0.06404548
0002f0 05 7a 80 bd 68 64 8e bc 3a 23 24 bd 7c 9c d4 bc
       -0.062732734 -0.017381862 -0.040072657 -0.025953524
000300 35 ec f5 3a 00 e4 29 3d c2 b2 e4 3c ca 93 ef 3c
       0.0018762412 0.041477203 0.02791727 0.029245276
000310 80 8b c7 bc a4 43 02 bc 1e 91 a9 3c 69 1c c2 3c
       -0.024358511 -0.007950697 0.02069908 0.023695188
000320 eb bf 3b bb ab 28 03 3d f3 4e bc 3c db 34 b6 3c
       -0.0028648328 0.032021206 0.022986865 0.022242
000330 ef cd e5 bc 03 f9 4a bd 90 3f d0 bc 51 00 3b bd
       -0.028052298 -0.049553882 -0.025420934 -0.0456546
000340 1d 0d 10 bd 19 50 37 bd 44 02 33 bd 39 83 99 bd
       -0.035168756 -0.04475412 -0.043703333 -0.07495732
000350 ba f1 64 bd 48 e9 70 bd 7c b4 40 bd ce 6e aa bd
       -0.05589459 -0.058816224 -0.047047123 -0.083219156
000360 d0 32 9e bd fe ee 96 bd 4f d2 3a bd 73 67 7a 39
       -0.077245355 -0.07369803 -0.045610722 0.00023880396
000370 55 31 34 3b 77 55 b3 3b e8 5d c0 3c 57 91 9e 3b
       0.0027495224 0.0054728347 0.023482278 0.004839103
000380 18 96 f9 3c b7 87 33 3c ec 14 b7 3c 82 80 46 bc
       0.030467078 0.01095765 0.022348844 -0.0121156
000390 f4 3d 46 3d b9 60 01 3b b8 6b 23 3d 57 e3 24 3d
       0.048398927 0.001974149 0.03989765 0.04025587
0003a0 2d 64 24 bd c6 8c 52 bd c0 b4 c8 bc 38 1a a9 bc
       -0.040134598 -0.051403783 -0.02450025 -0.020642385
0003b0 65 5e 8e 3c 15 ba 2f bd 6b 7f 07 bd 40 75 78 bd
       0.017378995 -0.04290207 -0.0330805 -0.060658693
0003c0 36 60 12 bd bf 65 66 bd e5 5d 6e bd cc 9c a3 bd
       -0.035736285 -0.056249376 -0.058195014 -0.07988891
0003d0 33 4b 3a 3b ee 9e 43 bd 7e 36 cd 3c 80 c4 ff 3b
       0.002842617 -0.04775899 0.025050398 0.007805407
0003e0 2a f7 39 3c 67 8b a8 3c 63 00 fe 3c 48 cb 3f bc
       0.011350432 0.020574285 0.031006044 -0.011706181
0003f0 80 7c 04 bc 4e 0a c9 bc e5 bf b3 bc a6 b1 69 3d
       -0.008086324 -0.024541046 -0.021942088 0.057054184

l1.bias f4 [64]
000000 ad 9a 02 3e a8 6c 84 bd 7b 7c 17 3e 56 73 b6 bc
       0.12754317 -0.06466037 0.1479358 -0.022271793
000010 bc 2a a9 3c 96 98 bd 3d a3 5f 7f 3d c4 59 f5 3d
       0.02065026 0.09257619 0.062347066 0.11980012
000020 cc 6f 5b 3c 8e de f5 3d e2 7e 62 3d 3c 50 ec 3d
       0.013393354 0.120053396 0.055296786 0.11538741
000030 3c 23 a0 bc 1d 10 79 bc 75 ab 82 3d e7 e1 02 3e
       -0.019548051 -0.015201596 0.06380359 0.12781487
000040 f4 92 1c bd ca d1 31 3d fe 6e b1 bd fc 6a 4b 3e
       -0.038226083 0.04341296 -0.08663748 0.1986503
000050 47 78 97 bc c4 e8 f5 3c 3d e6 15 3d 75 9c 00 be
       -0.01848997 0.030018218 0.036596525 -0.12559684
000060 2b 10 c6 bb 2b ea dd 3b 4e 13 06 bb a8 2a 2b 3d
       -0.006044408 0.0067722998 -0.0020458284 0.041788727
000070 a5 3b 7d 3e f3 73 a1 bc da 4d d5 bd e0 52 3a 3b
       0.24729784 -0.01970861 -0.1041524 0.0028430745
000080 63 8f 13 bc a0 f8 a1 3d 5d ba ce 3d 8c 02 7c 3c
       -0.009006354 0.079087496 0.1009414 0.015381467
000090 47 6a 2b 3e 67 27 1e 3c 23 2a 17 3e 92 8f b1 3c
       0.1673976 0.009652949 0.14762168 0.021674905
0000a0 8b be c2 3d f1 4b cf 3d ea 40 08 3e 87 5a b8 3d
       0.095089994 0.101219065 0.13306013 0.09001642
0000b0 b6 e7 d8 bc 2a 02 8a bd 62 5f 8c bc 0c 15 c2 3d
       -0.026477676 -0.06738694 -0.017135326 0.094766706
0000c0 05 40 17 3d 0b 76 be 3c ad 06 d0 ba fc d1 3d 3e
       0.03692629 0.023249647 -0.001587113 0.18537134
0000d0 08 aa 38 be e3 8f 81 3d 83 3e 71 3c 1e 70 07 bd
       -0.18033612 0.06326272 0.014724377 -0.033065908
0000e0 8d 5d d9 3d e6 ab 8b bd 50 5d 33 bc 21 57 f9 3d
       0.106135465 -0.068198964 -0.01094754 0.12174822
0000f0 5c a9 17 3e 9a 15 48 3c 2a 03 e2 3d 4e ce 2f 3c
       0.14810699 0.012212181 0.1103576 0.010730339

l2.weight f4 [64, 64]
000000 52 32 9c 3e 38 16 7e bd cb e5 f5 3d 0a 29 5c be
       0.3050714 -0.06203291 0.1200672 -0.2150003
000010 0f b0 47 3d 05 ba 6e 3d 71 09 04 bd 0b 31 d7 3d
       0.048751887 0.05828287 -0.032235567 0.10507401
000020 be c9 45 3e 67 81 d6 3a 60 66 82 3e ed 1b ef bd
       0.1931524 0.0016365469 0.2546873 -0.11675248
000030 e8 ff e5 bd 3e 73 2b be 27 72 6c 3d fa 02 5c 3d
       -0.11230451 -0.1674318 0.05772605 0.053713776
000040 fc d6 81 3e 9a a5 4f bd 7b be 13 be c5 f4 ae 3d
       0.25359333 -0.05069504 -0.14428131 0.0854278
000050 05 d4 07 bc 02 2c ea bc 5e d4 ad 3a 6c 64 ee 3d
       -0.0082902955 -0.028585438 0.0013262143 0.11640248
000060 f7 02 26 bd cc 44 1b bc 04 ec 08 be 43 bc 81 bd
       -0.04053017 -0.009476852 -0.13371283 -0.06334736
000070 40 1b 09 3d f0 f4 1e 3c 2e 9d 52 3d 70 73 3e 3d
       0.033473253 0.009701952 0.05141943 0.04649681
000080 01 2e 07 3e f4 8c b6 bd 27 d9 40 bd a9 0e 3f bd
       0.13201143 -0.089136034 -0.047082093 -0.04664484
000090 76 81 29 3d 4f fb 8a 3d 66 0f 2f be 28 dd 18 3e
       0.04138323 0.067862146 -0.17095718 0.14928114
0000a0 6f ae 49 3d 73 ae db 3d 66 6f e8 3d 7a e2 79 bd
       0.04923862 0.10726633 0.113493726 -0.061007
0000b0 d6 48 45 3e 29 01 1f be 1c 25 12 bd 40 4f 98 3d
       0.19266066 -0.15527786 -0.03567992 0.07436991
0000c0 76 b4 93 3d 3f e2 ee 3d 07 5c bb 3e bf d7 1c 3d
       0.072121546 0.11664247 0.3659365 0.03829169
0000d0 ea be 8d bd 5f ab 8d 3e 23 a0 c7 3d a5 ac 93 3e
       -0.069211796 0.27669808 0.097473405 0.28842655
0000e0 11 80 04 bd 57 c5 54 3e 70 4a 02 3e a1 32 97 bd
       -0.032348696 0.20778404 0.12723708 -0.073827036
0000f0 14 ca 45 bc 4d 1c 3a 3e d1 f9 27 3d 44 59 8e 3d
       -0.012072105 0.18174858 0.041009728 0.0695062
000100 71 f7 00 3d 8f f3 f9 bd c5 d7 e9 bd 67 2d b3 3d
       0.03148598 -0.12204658 -0.11418108 0.08748894
000110 59 77 69 bd ed 5f 91 bc 1a 58 09 bd 11 e5 33 3d
       -0.056998584 -0.017745936 -0.033531286 0.043919627
000120 22 e8 e2 bd 3d 15 b0 bd 13 58 12 bd 98 4e 15 bd
       -0.11079432 -0.08597801 -0.035728525 -0.036451906
000130 9f a5 bf bc 37 15 94 3a b5 00 1c bd f8 70 e7 bd
       -0.023394404 0.0011297826 -0.03808661 -0.11300844
000140 e5 dc f7 3d fb 09 29 3d 34 03 f2 bd e4 2b cd 3d
       0.12102679 0.041269284 -0.11817017 0.10018137
000150 f9 d4 e5 3d eb a2 19 bd 12 28 9b bd 64 dc 9e bd
       0.11222262 -0.037508886 -0.07576002 -0.0775688
000160 f3 58 ad 3d 7e 55 e5 bd 1c c1 a3 bb ed 74 6d 3d
       0.08464231 -0.11197947 -0.0049973857 0.057972837
000170 d5 ba 85 bc 63 86 00 bd 22 72 ac bd b8 53 99 3d
       -0.01632444 -0.03137816 -0.084202066 0.07486671
000180 9e 8f d7 3d cb ae 37 3d fc 71 f4 bd 2f 7f 16 3d
       0.1052544 0.04484443 -0.11935803 0.036742385
000190 26 e5 d3 3d 65 d4 59 bd 5b 56 58 3a e5 b8 32 3d
       0.10346441 -0.05318107 0.0008252614 0.04363336
0001a0 88 9b 35 bd ab 12 b0 3c bc 4d 3f 3d 65 2e 68 bd
       -0.04433778 0.021493277 0.046704993 -0.05668487
0001b0 d5 ee 03 3d 6c f3 41 3d 5d 0c f9 bd b9 cc 05 3b
       0.03221019 0.047351286 -0.12160561 0.0020416214
0001c0 90 d8 e7 bd ae c1 f4 bd 88 07 be bc 59 cd 96 3d
       -0.11320603 -0.11951004 -0.02319695 0.07363386
0001d0 a3 a1 df bd 4f 5e 27 bd 96 63 be bc 2c e5 84 bd
       -0.10919502 -0.040861424 -0.023240846 -0.064890236
0001e0 12 46 b8 bd d1 b4 93 bd f1 36 88 3d 7b 14 e5 3d
       -0.0899774 -0.07212222 0.06651104 0.11185547
0001f0 b7 3b 8b bd a3 8f 5f 3d 99 03 5f 3b 0d f6 c3 bd
       -0.06798499 0.054580342 0.0034029244 -0.09568415
000200 ce 1a ad bc 54 67 39 be 70 6f 71 3e 15 c5 dc bd
       -0.021130946 -0.18105823 0.23577666 -0.10779778
000210 21 c4 16 bc 21 9b 6d 3d d4 54 e1 3d 8a 39 9b bd
       -0.009202034 0.05800927 0.11002508 -0.07579334
000220 b2 72 4a be 4a e6 0a 3e 21 29 75 3d 6a b7 0e 3e
       -0.19770315 0.13564411 0.059853677 0.13937154
000230 43 d7 c0 3c c7 08 d5 3d d5 b1 b8 3d bd c4 65 bd
       0.023540145 0.10402065 0.09018294 -0.056095827
000240 6b ba 53 3e 58 da 4e be 93 d6 2c be 28 f8 12 3e
       0.20676582 -0.20200479 -0.16878729 0.14352477
000250 93 34 08 be bd 72 88 3d 9e b4 7c 3d c5 1c 9e bc
       -0.13301305 0.066625096 0.061695687 -0.019300828
000260 ff 33 43 bd 8e 46 e0 3d 95 6d 09 3e 1b 7f ab bc
       -0.04765701 0.10950957 0.13420708 -0.020934632
000270 c4 26 08 3e f4 48 3b be 15 17 90 3d d3 70 3a bd
       0.13296038 -0.18289548 0.070356525 -0.045517754
000280 4f 9e 53 3d 06 bc 28 3e fa 14 c5 bd f2 49 d9 bc
       0.051664647 0.16477975 -0.096231416 -0.026524518
000290 22 13 05 3d 70 da 48 3c 82 cc 26 3e f4 9e 5b 3d
       0.03248895 0.012259111 0.16288951 0.053618386
0002a0 5e ca 9b 3d 8d 02 dd bc 97 a1 fc 3d bf 88 59 be
       0.07606958 -0.026978755 0.12335508 -0.2124357
0002b0 13 d7 e5 bd ee fb 54 bd 29 d3 19 3e aa 9c d8 bd
       -0.11222663 -0.05199807 0.15021957 -0.10576756
0002c0 8a 1e 27 bc 56 72 ab bd 08 9d 86 bd b5 22 5c 3e
       -0.010200152 -0.08371417 -0.0657292 0.21497615
0002d0 bb 00 65 be ae 25 73 3e 02 5d be bd 3c 94 8e 3d
       -0.2236356 0.23744842 -0.092950836 0.06961867
0002e0 79 79 33 be 90 03 e7 bd 74 1f 56 3c 26 e7 6a 3c
       -0.17526807 -0.11279976 0.013069022 0.014337337
0002f0 0f f1 12 3d f7 c7 12 be e5 cb c0 3c 95 35 ba 3c
       0.035874423 -0.14334093 0.023534724 0.022730628
000300 6a a9 cc bd da 07 28 3d a5 59 88 bc 80 8f 26 3e
       -0.09993251 0.041023113 -0.016644308 0.16265678
000310 d7 30 89 3d 22 03 fb bd da 2f 94 3b 7b dc cd bd
       0.066987686 -0.12256457 0.004522306 -0.10051819
000320 d8 19 54 bd 3c b6 b6 bd f3 b7 40 3a c6 9a fa 3d
       -0.05178246 -0.08921477 0.00073516293 0.12236552
000330 8b 59 7f bd 8d 18 c2 3d c9 af 62 bd b0 7b 47 3c
       -0.062341254 0.09477339 -0.055343423 0.0121754855
000340 55 86 b8 bd 45 71 7b 3c 30 2d de bd ff 48 88 bd
       -0.09009997 0.01534683 -0.108484626 -0.06654548
000350 db 40 0b be e7 e7 4c 3d 23 26 72 3d a4 e6 2f 3e
       -0.13598959 0.050025847 0.0591184 0.17177826
000360 cd 3a 92 3c 49 42 72 3c 71 1c a2 3d 3c 70 2e 3e
       0.017850304 0.014786311 0.07915581 0.17035002
000370 04 13 02 3c 9a b1 85 bd c1 a9 40 3d 57 56 10 be
       0.007939104 -0.065280154 0.04703689 -0.14095436
000380 67 17 fe 3d 14 5f 36 be 01 7c 97 3d 0e 20 c0 3c
       0.124068074 -0.17809707 0.07396699 0.023452785
000390 69 ed 54 3c 35 38 eb bd 5d fb 82 3d ea b1 8e bc
       0.012996056 -0.1148533 0.063956 -0.01741882
0003a0 fb b2 aa bc f6 c0 18 3e 86 ed e5 3d 20 82 b5 bb
       -0.020837298 0.14917359 0.112269446 -0.0055391937
0003b0 b0 4a 3a be 73 3a 73 3e 25 5d a7 bd 87 a6 ea bd
       -0.18192554 0.23752765 -0.08172063 -0.11457544
0003c0 be 35 08 bd 88 fe 8b bd e0 a7 94 bc e9 c9 08 be
       -0.033254378 -0.06835657 -0.018146455 -0.13358273
0003d0 22 df 98 3d cb 63 87 be 2b ac 2d 3d 07 b6 ae bd
       0.07464434 -0.26443323 0.04240052 -0.08530813
0003e0 4c 5d 24 3e 22 fc 34 bc 43 cb a0 bc 19 76 81 bd
       0.16051215 -0.011046441 -0.019628173 -0.063213535
0003f0 d2 b2 4e 3c 70 a3 c6 bc a9 d9 7f 3d b6 6d d2 3d
       0.012615876 -0.024247855 0.062463436 0.10274832

l2.bias f4 [64]
000000 1e 12 bd 3d d9 11 98 bd 57 e9 4e 3c 11 01 fd 3d
       0.09231971 -0.07425279 0.012628875 0.12353719
000010 41 b6 27 3d 01 43 cc 3d 33 1b 65 3d af da 90 bd
       0.040945295 0.099737175 0.055934142 -0.070729606
000020 01 43 19 be c8 d6 cc bd bc 8d 14 3e c4 2e 96 bb
       -0.14966966 -0.10001904 0.14507192 -0.0045832116
000030 0d 13 3c 3c e8 36 06 bd 06 c5 87 bc b4 92 85 3d
       0.011479151 -0.032767206 -0.01657344 0.06522122
000040 9c 09 03 3e 3c 71 24 3e 61 75 25 bd 6d 1d 45 3e
       0.12796634 0.1605882 -0.040395144 0.19249506
000050 a8 70 91 3d 6a 85 4b bc 1e b3 65 bb 09 b7 58 3d
       0.071015656 -0.012421945 -0.003504939 0.05290893
000060 7f ba 87 bd 10 c1 2d bd 2b 25 96 bd f2 ab 04 3e
       -0.06627368 -0.042420447 -0.07331308 0.12956217
000070 ca ab 5a bc aa b4 69 3d bc 6e 00 bc 52 e9 3a bd
       -0.013346622 0.05705706 -0.007838901 -0.045632668
000080 99 5c 47 bd b1 5e 41 bc 66 18 52 3d 26 ef 5d 3b
       -0.048672292 -0.011802361 0.0512928 0.0033864467
000090 c3 7a 2b bd ee e2 90 bd 06 24 b6 3d 72 21 0e 3e
       -0.04186512 -0.070745334 0.0889359 0.13879946
0000a0 04 e4 1b bd a0 2e 06 3e a6 be b1 bc 3d fd ab bd
       -0.03805925 0.13103724 -0.021697354 -0.08397911
0000b0 88 91 40 3c 5e 66 0f be dd 3c fa bd 62 cb 13 bb
       0.011753447 -0.14003894 -0.1221864 -0.0022551646
0000c0 ab 64 88 bb bb 7b 2e 3d 49 87 93 bd d5 5d c8 3d
       -0.004162391 0.042598467 -0.07203538 0.09783522
0000d0 29 ea b0 bd 76 b7 9c 3d a0 50 11 3e 4f 57 e1 3d
       -0.086384125 0.0765218 0.14190912 0.11002981
0000e0 ce 58 ea bd 45 6c f9 bc 84 11 0d bb e4 32 d3 bc
       -0.114427194 -0.030447135 -0.0021525333 -0.025781102
0000f0 35 e3 d8 3d cd 48 49 3d ba 0f 84 bd 05 77 ef 3d
       0.10590211 0.049141694 -0.06448312 0.11692623

l3.weight f4 [10, 64]
000000 01 39 4c be b4 3e 8e 3e e8 de 1d 3c 7e 64 8f 3e
       -0.1994362 0.27782214 0.0096356645 0.28006357
000010 84 89 be 3e 3e 53 c4 be 3b 25 8b 3e 2b c0 0a bd
       0.3721429 -0.3834476 0.27176842 -0.033874672
000020 c4 d7 e9 bd 6a 83 d6 be ba b3 ca bd e9 0b 7f 3e
       -0.11418107 -0.41897136 -0.09897561 0.24906887
000030 7a f5 95 3e 23 fc 61 3e 57 c9 89 3e 92 ce 7b bd
       0.29288846 0.22068839 0.26911423 -0.061476298
000040 cd 18 c5 be 94 25 04 bf 22 90 ab 3c bc be b4 3e
       -0.38495484 -0.5161984 0.020942751 0.3530177
000050 c7 ee 8f be 6e 91 b9 bc 8a 5d af 3e e2 b5 8e 3e
       -0.2811186 -0.022652354 0.34251052 0.2787314
000060 27 5e a9 be 1f a2 09 bf dd b7 17 3d 9a 2d 1d 3e
       -0.33079645 -0.53763 0.03704058 0.15349427
000070 74 b9 2d 3e 5a da 90 3d 87 1e b2 3e 6c 9b 92 3d
       0.16965276 0.07072897 0.34788916 0.071585506
000080 61 b9 c7 3d 66 c3 87 be cc 8d 3d be bd 4a 4d bd
       0.09752155 -0.26516265 -0.18511122 -0.050120104
000090 71 23 71 3e 86 af 80 3d a9 93 37 be 3c af 8c be
       0.23548676 0.062834784 -0.17927422 -0.27477443
0000a0 81 6d 49 3e c2 dd 21 bf cd b4 10 be 06 3e ce be
       0.19670679 -0.63229 -0.1413147 -0.40281695
0000b0 06 bc 69 3e ed ef c0 3e 4b 6b e7 bd 3f 7c be 3e
       0.22825631 0.3768305 -0.112997614 0.37204167
0000c0 04 ab 3d 3e 30 33 a9 39 37 be 90 bd f7 29 04 3d
       0.18522269 0.0003227233 -0.070675306 0.032266583
0000d0 a4 39 a8 3e dc fe c2 bd fb 36 8b be 6a 1c 90 be
       0.32856476 -0.09521267 -0.27190384 -0.28146678
0000e0 d7 be 95 3e 72 77 f9 be 29 ad c9 3c d0 3c a6 be
       0.29247162 -0.48723942 0.024618702 -0.3246827
0000f0 cc 2c be be f0 4e 59 be f1 05 9d 3e a9 2a 32 3d
       -0.37143552 -0.21221519 0.30668595 0.043497715
000100 29 1c c4 3e 8c 36 7a 3c 23 6b 66 3e 0a f3 2a be
       0.38302734 0.015271794 0.22501807 -0.16694275
000110 59 36 a5 be ce 54 14 3e 64 77 2f bf bc ff a5 3e
       -0.32268026 0.14485475 -0.6854155 0.32421672
000120 9d b7 1d be b1 fc 01 bd de c8 d7 3e 42 64 89 be
       -0.15402074 -0.031735126 0.42145437 -0.26834303
000130 57 4c 4e be 2f 20 7a be e9 ad a4 be 63 b1 ac 3d
       -0.20146309 -0.2442634 -0.32163933 0.08432271
000140 b2 80 bf 3e 31 ac 83 3e 9b f2 fd bd 51 b5 24 be
       0.37402874 0.2571731 -0.12399789 -0.16084792
000150 b2 ae b9 3e 69 07 b5 3d 9f 43 28 be de 4c 4a be
       0.36266094 0.08839304 -0.16432045 -0.19755885
000160 40 c9 cb be c8 45 4c 3d e6 1b b7 be f8 67 cd be
       -0.3980198 0.049871236 -0.35763472 -0.40118384
000170 d1 aa 3d be ae 1a 02 be d8 a9 0e be 87 14 49 3e
       -0.18522193 -0.1270549 -0.13931978 0.19636737
000180 f6 0f 02 be 42 b6 c7 bc 44 6c 3c 3e f1 42 2b be
       -0.12701401 -0.0243789 0.18400675 -0.16724755
000190 4b eb 60 3d 40 28 76 be e3 50 13 3e 49 57 49 3e
       0.054911893 -0.24038792 0.14386325 0.19662203
0001a0 37 f5 79 be 0b ef 83 3e 47 d1 9f 3e d5 bc 22 3e
       -0.24409948 0.25768313 0.31214353 0.15892346
0001b0 82 69 80 be bd a7 32 be e1 37 d6 be 45 e4 17 3e
       -0.25080496 -0.174468 -0.41839507 0.14833172
0001c0 47 1f 57 be e5 ee 4a 3e 04 ba ee 3d b4 74 6f be
       -0.21008025 0.19817694 0.116565734 -0.23384362
0001d0 6a 52 a5 3d f5 42 03 3e 22 bb d1 3e d8 a1 fb 3e
       0.0807236 0.12818511 0.40963084 0.49146914
0001e0 1b 45 54 3e a5 be c3 3e c6 5c 09 3f e4 0f 43 3b
       0.20729487 0.38231388 0.53657186 0.002976411
0001f0 28 66 fb be 95 b7 b8 be be 8c 06 be 4f b6 c4 3c
       -0.49101377 -0.36077562 -0.13139626 0.024012713
000200 de 3e 30 3d 4e 40 9d 3d 69 3c 93 3e 88 10 cc 3c
       0.043028705 0.07678281 0.28757027 0.024910226
000210 d3 64 89 3e 31 e5 f1 bb a7 cf af 3b f3 78 97 3e
       0.26834735 -0.007382058 0.0053653303 0.29584464
000220 b8 dd 37 3e 41 7f 0e be a6 c6 98 be e4 a5 2b be
       0.17955673 -0.13915731 -0.29839057 -0.16762501
000230 da 90 00 bf 66 24 2a 3b 9f 3a 6a be 5a ba 2f bd
       -0.50221026 0.0025961637 -0.22873925 -0.042902328
000240 2e 71 b3 be 18 86 93 3e 2b 36 6f be f1 42 cf be
       -0.35047287 0.28813243 -0.23360507 -0.4048076
000250 15 54 67 3e f6 e0 8a be 12 1b 7a bc b2 7d 9c 3e
       0.22590668 -0.27124757 -0.015265243 0.30564648
000260 10 64 cc 3e 6a 53 17 bf 26 ff f7 3d 43 f6 ca 3d
       0.39920092 -0.59111655 0.121092126 0.09910252
000270 b2 a4 50 3e 72 cd 21 3f 9b 5c b4 3e 8e 60 47 3e
       0.20375326 0.6320411 0.35226902 0.19470426
000280 25 17 ab bc 5a 7d 1a 3e 22 d2 d4 3d 42 45 9d be
       -0.02088506 0.1508688 0.10391642 -0.30716902
000290 8d 12 82 be ed a6 e5 3d ab 0c e0 be 6b cb 94 be
       -0.25404778 0.11213479 -0.43759665 -0.29061446
0002a0 ed 92 b7 bd 08 f6 18 bf 1b aa e8 be b3 6e 43 3d
       -0.08963571 -0.59750414 -0.4544228 0.047712993
0002b0 bf 8e 9d 3e 0f 15 53 bd 9a 48 95 bd d0 cb 0b 3e
       0.3077297 -0.051533755 -0.07289238 0.13651967
0002c0 74 e6 04 3e ef f2 b7 bd 06 21 7c 3e 36 41 aa be
       0.12978536 -0.08981883 0.24621972 -0.33252877
0002d0 b9 f2 3c 3e 8e 2c 75 3e 5d 57 b5 3e c4 09 d7 3e
       0.18451966 0.23942778 0.35418215 0.41999638
0002e0 fd 00 d9 be d1 9b c0 3e 19 54 49 3e 61 b3 d0 3e
       -0.42383566 0.37618878 0.19660987 0.40761855
0002f0 d7 2b ee bd 32 b4 bf 3e 2e 09 cb 3e 8c a8 9c be
       -0.116294555 0.37442166 0.3965544 -0.3059734
000300 60 7a 77 3e 90 10 3d be 67 71 86 be 37 fe aa 3c
       0.24167776 -0.1846335 -0.26258394 0.020873172
000310 a2 8e 97 be 1c ba a4 be 3b 0e 92 bd 3f fd 0c bf
       -0.29601008 -0.3217324 -0.071316205 -0.5507392
000320 28 64 86 3e 25 09 1d 3e 66 5d 8d 3e 33 04 8f 3e
       0.26248288 0.1533552 0.2761032 0.2793289
000330 32 b2 99 be c6 16 92 3e b4 6a a6 3c f3 51 9e bd
       -0.30018765 0.28533 0.020314552 -0.07730474
000340 e5 2b 0a 3f 95 01 6b 3e e4 5f 40 3e fa 33 16 be
       0.5397323 0.22949822 0.1878658 -0.14668265
000350 e0 52 74 3e 03 9f 9b 3d cd d8 c9 3e c6 44 96 3e
       0.2385974 0.075986885 0.39423218 0.29349345
000360 08 71 c5 bd 3c 7a be 3e b5 73 b4 3b a2 49 d7 be
       -0.096406996 0.37202632 0.0055069574 -0.42048365
000370 97 5a d7 be e9 e0 d5 bc b7 4d 98 3e bc 86 0f be
       -0.42061302 -0.026108222 0.29746792 -0.14016241
000380 7c 26 8f bd c6 47 c8 3b 9f c7 8b be bd 02 d0 bd
       -0.06989762 0.0061120717 -0.27300736 -0.10156772
000390 fe 79 ac be a5 da 75 3e e0 e9 d0 be 8e f0 82 3e
       -0.33686823 0.24009188 -0.40803432 0.25574154
0003a0 6e 0f 70 be 06 5c 87 3e bb b3 03 bf fd 5d 73 3e
       -0.23443386 0.26437396 -0.5144612 0.23766322
0003b0 03 64 95 3e 7a e2 19 3d 4b a0 8c 3e ef 7b 7e 3e
       0.29177865 0.0375695 0.27466044 0.24851964
0003c0 e9 c2 64 be ed ab fd 3d c4 b0 81 3e b1 f2 dd be
       -0.22339977 0.12386308 0.25330174 -0.4334922
0003d0 c9 f0 12 3e b8 a4 b7 3d 36 4e 96 be de e1 da 3d
       0.14349665 0.089669645 -0.29356545 0.10687612
0003e0 85 a7 82 3e 9c 89 a0 3e b7 37 af be eb ba 8d be
       0.25518432 0.31354988 -0.34222195 -0.2768167
0003f0 4d 34 a7 3b ee 77 8d 3e 94 2c 00 be 8b 97 35 be
       0.0051026703 0.27630562 -0.12517005 -0.1773359

l3.bias f4 [10]
000000 b9 90 04 be a3 26 39 3e 14 5d df 3d 8a 62 a9 bd
       -0.12945832 0.18081145 0.10906425 -0.08270748
000010 c4 0f b3 bd 8c 26 38 3e 17 b4 91 bd 88 d8 20 bd
       -0.087432414 0.17983454 -0.071144275 -0.039269
000020 d3 4d c6 bd de a5 09 3e
       -0.096828125 0.1344218
