lightning_logs/version_1/checkpoints/epoch=4-step=9374.ckpt (torch, 222871 bytes, 6 tensors)

l1.weight f4 [64, 784]
000000 be 4b a9 3c b6 56 c8 3c bf fb 01 3d 84 cc 4e 3c
       0.020666 0.02445541 0.031734224 0.0126220025
000010 38 54 82 3c 36 d7 cb 3c a0 91 70 3c 20 0b 71 3b
       0.0159093 0.024882894 0.014683157 0.0036780313
000020 0c 8c b3 3c 12 99 2e bc 3f 86 07 3d f0 8e b0 bb
       0.021917365 -0.010656612 0.03308701 -0.005388133
000030 4f 3a 0a bd 5f 9c bc bb ee 86 04 3b c0 c9 e3 bc
       -0.033747014 -0.0057559456 0.0020222026 -0.027806163
000040 58 e5 10 bc 4a d4 e8 bc 2e eb b3 bc a6 72 ae 3c
       -0.008843742 -0.02842154 -0.021962728 0.021294903
000050 c2 32 d4 3c 08 ab e5 bb 43 8d 90 bc b8 10 27 3c
       0.02590311 -0.007008914 -0.017645484 0.010196857
000060 48 f1 81 3c 2a d5 95 bc c0 8c 19 bc 48 77 06 bd
       0.015862122 -0.018290121 -0.009371936 -0.0328286
000070 aa ec 5d bc 30 85 a2 bc d2 b8 a3 3c 50 22 88 bb
       -0.013545195 -0.0198389 0.01998559 -0.004154481
000080 a1 33 ed bc c5 30 bb bc a5 a0 f7 3b 6f a1 d6 3c
       -0.028955283 -0.022850404 0.007556992 0.026200024
000090 cc 3c 8c bc 09 65 4c bc 9c 63 a8 bc d7 e6 a8 bc
       -0.017118834 -0.0124752605 -0.02055531 -0.020617886
0000a0 6e d9 0a bd 22 19 ac bb 68 af 63 3c 6d d9 14 bd
       -0.033898763 -0.0052520195 0.013896801 -0.036340166
0000b0 74 7a d7 bc 44 7c 02 3d 5e 16 b7 bc 03 e6 b1 3c
       -0.026303507 0.03185679 -0.022349533 0.021716123
0000c0 43 03 d7 bb 73 c2 2c 3c 68 7b ee bc af 2f 0c bd
       -0.006561668 0.010544407 -0.029111579 -0.034225162
0000d0 f0 dd c2 bc a6 6f ea 3c 08 94 c1 3b 78 66 ab 3b
       -0.023787469 0.028617691 0.0059075393 0.005230721
0000e0 64 57 d7 bb ea 99 08 bc e0 65 b1 3c 2b 39 28 3b
       -0.006571697 -0.008337477 0.021655023 0.002566884
0000f0 81 b7 0b 3d d7 c8 11 bc 1e 62 c1 bc a4 c9 6d 3b
       0.03411055 -0.008897982 -0.023606356 0.0036283517
000100 d2 20 c2 3b 9c d1 0d 3d b8 d7 0e 3a a6 f6 7e 3a
       0.0059243226 0.034623727 0.0005449015 0.00097260845
000110 16 5e 94 3b 68 cf 06 bd 0e 17 b5 3c d6 fc ae 3c
       0.0045278175 -0.03291264 0.02210572 0.021360796
000120 1c 9c 02 3c 62 55 e1 bb 5a c9 bb 3c 60 7d 16 3c
       0.00797179 -0.0068766335 0.02292316 0.009185165
000130 d2 74 76 bc 3e 28 93 bc 41 fd 84 bb 86 b6 c3 3b
       -0.015042501 -0.017963525 -0.0040585105 0.005972686
000140 fa 11 5b 3c d4 98 ec 3b b7 36 92 bc fc e3 bf 3c
       0.013370985 0.007220367 -0.017848356 0.023424141
000150 40 8e 99 3c f0 ef 00 bb 04 1e f1 3c 07 55 82 bc
       0.018744588 -0.0019674264 0.029433258 -0.015909685
000160 cd 77 56 3b 93 bf 76 bc fd cd 05 3d 50 e8 2d 3b
       0.0032725215 -0.015060323 0.03266715 0.0026536174
000170 5c 4c 00 3d 0c 10 c1 bb 16 61 9c 3c 8f 70 65 bc
       0.031322822 -0.0058918055 0.019089263 -0.014003887
000180 98 54 21 3d fd 40 14 bc 3a e3 f6 bc 58 4c 1f bd
       0.039387316 -0.009048698 -0.030137647 -0.038891166
000190 62 c4 93 3c ff ae b6 bb 71 3f bc ba 4c 7d 53 3c
       0.018037979 -0.0055750604 -0.0014362169 0.012908291
0001a0 93 24 9f bc d0 79 75 bb 5f 8b c1 3c 9b c4 a7 bc
       -0.01942662 -0.003745664 0.023626028 -0.020479491
0001b0 fa a5 25 bc 96 25 1d bc 72 f7 b9 3c cc 56 ca 3c
       -0.010110373 -0.009591481 0.022700999 0.024699591
0001c0 fc 9e 44 bc be b4 b5 bc fd 52 84 3c 6b 7a 07 bc
       -0.012000795 -0.022180911 0.016152853 -0.008268933
0001d0 92 cc 1b bb 0e 3c 32 bb 9c 15 7d 3c 56 09 cd 3c
       -0.0023773056 -0.002719644 0.015447047 0.025028866
0001e0 78 af 2c bc e2 21 c1 bb 3a 5e af 3a d3 ed 23 3d
       -0.010539882 -0.0058939317 0.0013379522 0.04002173
0001f0 90 79 8b bb b8 6f b9 3b 2f 14 af bc 79 91 b0 bc
       -0.0042564347 0.00565907 -0.021371929 -0.021553742
000200 fb 72 2d bd 81 08 3b 3a 86 1b a8 3a 58 d2 0d bd
       -0.042345982 0.0007134751 0.0012825585 -0.034624428
000210 82 0e cd 3c a0 55 4f 3c 94 bf 3f 3c 44 70 92 bc
       0.025031332 0.012654692 0.011703391 -0.017875798
000220 33 be fc bc 45 a1 cf bc 6b 6c 9c bc 48 e3 77 3c
       -0.030852413 -0.025345454 -0.019094666 0.015129872
000230 58 2f a6 3c 2e 09 7b bc d5 41 25 bb a9 63 07 3d
       0.020286247 -0.015322013 -0.002521624 0.033054028
000240 c5 0c b1 3c 64 a3 db bc 31 b4 8c 3c f7 22 e0 3c
       0.021612534 -0.02681131 0.017175766 0.027360423
000250 3f a0 90 bc f8 6b b9 bb 3c 88 9d 3c 81 d1 dc 3a
       -0.017654536 -0.005658623 0.01923 0.0016847105
000260 99 ae 54 bd 1c aa 87 bd 1b 31 0e bd fd 02 30 bd
       -0.05192432 -0.06624243 -0.0347148 -0.0429716
000270 b8 6c a3 bd 56 da 4a bc df 77 5d bd 98 78 26 bd
       -0.07979721 -0.012381157 -0.054069396 -0.04064235
000280 66 95 7a bc 75 2a 13 bc c6 ca f2 bb 54 30 45 3c
       -0.015294408 -0.0089822905 -0.0074094264 0.012035448
000290 f9 37 0f 3d e3 51 38 bc 67 06 0f 3c e9 39 40 3c
       0.03496549 -0.011249992 0.008729554 0.011732557
0002a0 6a 51 b0 3c d9 c5 d8 3c 22 5d 9e bc 97 0a 48 bb
       0.021523196 0.026461529 -0.019331519 -0.003052389
0002b0 03 45 0e 3d c7 f3 a0 3c ab 7d f5 3c ad 47 e3 3a
       0.034733783 0.019647492 0.02996715 0.0017340087
0002c0 57 0a 54 3d 2b 15 2e 3d d0 02 a7 3c 5b 46 85 bb
       0.051767673 0.042500656 0.020387083 -0.004067225
0002d0 04 5d fc 3c 5f 99 2b 3d 70 d1 06 bc 69 f5 12 3c
       0.030806072 0.041894313 -0.008228645 0.008969643
0002e0 d5 9a 67 bc 7b 38 8b 3c 4a 24 e2 3c 71 78 b5 3c
       -0.014136036 0.016994705 0.027605195 0.022152158
0002f0 29 dc a4 3c 81 eb 37 bb de 4a 53 bb 51 3a dc bb
       0.020124512 -0.0028063955 -0.003224067 -0.006720819
000300 d7 f4 95 3b 2c e1 99 bc 01 9e 62 3c 68 7f e6 3c
       0.0045763063 -0.018784128 0.013831616 0.028136924
000310 40 b7 4f 3c 57 a5 c3 3c 87 66 25 3c d8 44 92 bc
       0.012677968 0.023882551 0.010095245 -0.017855093
000320 e8 b3 d4 bb 9f 66 da 3c 8d fb e9 3c 7a fb 9f 3c
       -0.006491173 0.026660262 0.028562332 0.019529093
000330 c1 01 01 3d 18 9b 88 3c 20 79 91 3d 88 1d a0 3d
       0.031495813 0.016675517 0.07103181 0.07818133
000340 48 31 ca 3d b6 31 b8 3d 22 ce fe 3d 01 a7 b3 3d
       0.09872681 0.089938566 0.124416605 0.08772088
000350 2c 94 31 3d 88 c5 3a 3d e6 2e 3c 3d c0 31 7f 3c
       0.0433542 0.045598537 0.045943163 0.015575826
000360 32 43 6a 3d c5 4c 8b 3d 10 33 38 bb b1 a5 df 3c
       0.05719299 0.06801752 -0.0028106607 0.027300688
000370 cf 6b 8c 3c ae 4b 44 3d 1d 56 9e bc 35 34 77 ba
       0.01714125 0.047923736 -0.019328171 -0.00094300817
000380 1c 13 63 bc ef 49 81 3c b6 b5 2e bc 4e 25 e5 3c
       -0.0138595365 0.015782325 -0.01066344 0.02797189
000390 4f 60 02 3d 7f 3c cd bc 4c 24 86 bc a7 f8 f9 3c
       0.03183013 -0.02505326 -0.01637473 0.030514074
0003a0 e4 87 80 3d 89 ac fa 3c 39 9f b7 3d 02 17 9b 3d
       0.06275919 0.03059985 0.08965916 0.07572748
0003b0 e6 b5 95 3d 72 5f e1 3d eb 09 98 3d cb 87 a0 3d
       0.07310085 0.11004533 0.07423767 0.078384005
0003c0 8e 57 51 3c 64 0e 5c 3d 09 1a 70 3c 83 95 ab 3b
       0.012777222 0.05372466 0.014654645 0.005236329
0003d0 8f 00 fb 3c 53 7a 02 3d 94 8e f4 38 ef c9 db 3c
       0.030639915 0.03185494 0.00011661384 0.026829688
0003e0 be 9b 6e 3c f4 09 37 3d 92 1f bc 3c e2 42 44 bc
       0.014563499 0.044687226 0.022964273 -0.011978837
0003f0 1c 73 fe 3b 0d 7c f9 3a a0 6c ed bc d4 72 c9 bc
       0.007765187 0.0019034162 -0.02898246 -0.024590887

l1.bias f4 [64]
000000 ad dc c8 3d 61 3b 2e 3d c8 f7 d2 3d 9e 22 16 3d
       0.098077156 0.042537097 0.10301167 0.036654107
000010 98 a4 81 3d 7a dd 8f bd 00 18 04 bd 25 f7 12 bd
       0.06330222 -0.07024665 -0.03224945 -0.035880227
000020 eb 8f 63 bc be 96 08 3d e2 4e 77 3d 4d 89 a8 3d
       -0.013889293 0.033346884 0.060377963 0.08229313
000030 61 f0 0d 3e 19 b4 60 bc 97 50 e8 3c 82 5b 86 bd
       0.13861229 -0.013714814 0.02835874 -0.065604225
000040 a0 6a c5 3d 1d aa ad 3d ac c6 69 3d 12 d2 81 bd
       0.09639478 0.08479712 0.057074234 -0.06338896
000050 69 b3 a8 3c fb df 49 3d 5c 1d f3 3c 4d 68 bc 3d
       0.020593362 0.04928587 0.029677086 0.09199581
000060 03 1b d2 3d 54 fd 9f 3d 24 cc f6 3d ca b1 de 3c
       0.10259058 0.078119904 0.120506555 0.027184386
000070 f8 2c c3 3d 04 71 e7 bd 45 b3 93 3d 55 bf 4c 3d
       0.095300615 -0.11300853 0.07211927 0.049987156
000080 80 b9 ba bc 46 c1 35 bc b1 ad a2 bd 25 d5 bf 3c
       -0.022793531 -0.011093443 -0.07943285 0.023417065
000090 b8 b8 fd bb f9 d5 e0 bc fa f1 89 bc a9 bd 90 bd
       -0.0077429675 -0.02744578 -0.016839016 -0.07067425
0000a0 ea fb d3 3d f7 da 0a 3e 7c da 18 3d f4 94 56 3d
       0.10350783 0.13560091 0.037317738 0.052388147
0000b0 bf 2e f2 ba df 9e f7 3d 3b 58 03 3d 51 65 61 bd
       -0.0018477066 0.12090849 0.032066565 -0.055028263
0000c0 1e 73 8a 3c 5c 64 32 3d a2 d3 54 bd 93 44 6b 3d
       0.016900595 0.04355274 -0.05195964 0.057438444
0000d0 40 9f 8e bc 55 f2 a0 3d e1 20 cd bd 91 3a 98 bb
       -0.01740992 0.07858721 -0.10016037 -0.0046456535
0000e0 24 b2 b1 3d 46 86 ea bd e7 1e 3e bd d5 68 b6 3c
       0.08676556 -0.11451392 -0.04641619 0.022266785
0000f0 56 cc 64 ba a6 10 1d 3c b5 2a 43 bc ed 8b 3e 3d
       -0.0008727958 0.009586489 -0.011912038 0.046520162

l2.weight f4 [64, 64]
000000 37 6f 16 3d 17 e9 2f 3d b3 4f ec 3d a7 dc 5f bb
       0.036727156 0.0429469 0.11538639 -0.0034158619
000010 4a 1d 05 3e 3a a0 14 bd 1c 93 9c 3d 27 42 83 3d
       0.12999454 -0.036285616 0.076452464 0.06409102
000020 6e 5b 9d bc 2c d1 5d bd 19 45 17 3e 7c ab c1 bd
       -0.019208636 -0.05415456 0.14772452 -0.09456536
000030 2a 7e 48 3e e5 79 17 be 88 4b 93 3d fd e2 a9 bd
       0.19579378 -0.14792593 0.07192141 -0.08295248
000040 3b 39 5d 3d 2d 15 d4 3d d8 d0 93 3d 54 b6 fe bd
       0.054009657 0.103556015 0.07217568 -0.1243712
000050 6d c0 98 bc 84 b5 da 3d 8c ef 71 3d f9 59 c2 bd
       -0.018646443 0.106791526 0.05906634 -0.09489817
000060 8f a1 c1 bd 9e a9 88 bd ad 23 0e 3e b6 dc 72 3d
       -0.09454643 -0.06672977 0.13880797 0.059292518
000070 bc 02 36 bd 8a cc 51 bc 8a d0 b5 3d 04 68 d4 3d
       -0.0444362 -0.012805114 0.08877666 0.10371402
000080 2c 27 03 be 30 22 b5 3d 28 7b 4b bd f3 78 85 3d
       -0.12807912 0.088444114 -0.049677998 0.0651721
000090 c6 88 08 3e 82 65 52 3d c3 8e 1e bd bf c6 47 3d
       0.13333425 0.051366337 -0.038710367 0.048773523
0000a0 a6 88 83 3d fd d3 3d bd 6f c8 b0 bd b6 99 99 3d
       0.06422548 -0.046344746 -0.0863198 0.07500021
0000b0 d1 cf 7a bd 00 b8 11 3d cb 1e bc 3d d9 6c ac bc
       -0.061233345 0.035575867 0.09185561 -0.021047996
0000c0 5a ee d9 3c 8e e0 89 3d e3 67 21 3d 27 72 0e be
       0.026602913 0.067322835 0.039405715 -0.13910733
0000d0 75 ff 28 bd f4 f7 56 3e 0f 1b 0f 3e ce 16 5e bd
       -0.041259248 0.20993024 0.13975166 -0.054220967
0000e0 ce 19 ba bd 74 11 9c bd a0 6d 1a 3e ca 31 42 3d
       -0.09086953 -0.076205164 0.15080881 0.047410764
0000f0 1d 93 4a 3e fb fa 8d 3d 08 b6 86 bd 1f 25 a5 bb
       0.19782682 0.06932636 -0.065776885 -0.0050398256
000100 01 d8 35 3b c2 80 34 3e 9d 26 0a 3e 50 ce 03 3d
       0.0027747157 0.17627242 0.13491292 0.032179177
000110 20 2f 35 be 58 1c c0 bd d0 a4 08 3d aa dc 24 3e
       -0.17693758 -0.09380406 0.033360302 0.16099802
000120 e0 1b 9b 3d 87 0e b6 3d 76 5a 8d 3d 29 61 2c 3d
       0.07573676 0.088894896 0.0690202 0.042084847
000130 51 d4 b7 bd c5 8a 3a be 27 40 b7 bd 52 42 af 3d
       -0.08976043 -0.18216999 -0.08947783 0.085575715
000140 8f 8d 51 3d b2 71 12 be a7 d1 c1 3d 85 ff 03 3e
       0.05116039 -0.14301184 0.09463816 0.12890442
000150 92 d0 a9 3d fb 61 0f 3e f8 e0 64 bd 31 9e c3 3d
       0.08291735 0.1400222 -0.05587861 0.09551657
000160 bd 9a 5c bd 98 c9 cd 3d 9c 0c 92 bd 5d de ab bd
       -0.053858507 0.100482166 -0.07131311 -0.08392022
000170 0a 16 a3 3d 32 c0 04 be 27 5e ad 3d a9 75 77 3d
       0.07963188 -0.12963942 0.08465224 0.060414944
000180 62 12 21 3c 12 eb 30 bd 8f d5 cb bd fa 7e 58 bd
       0.009831043 -0.04319293 -0.099528424 -0.05285547
000190 5c 99 93 3d 94 4c 46 bd 9e 03 58 3d 4a c8 34 ba
       0.07206985 -0.048412874 0.052737825 -0.00068963005
0001a0 58 58 8f 3d d9 23 eb bd e5 1f 2d bd cb a8 1d be
       0.06999272 -0.11481447 -0.042266745 -0.1539642
0001b0 05 65 08 be ac a1 10 be 9f 34 e9 bd 6d 48 bb bd
       -0.13319786 -0.14124173 -0.1138699 -0.091446735
0001c0 d6 83 02 3e fe 7c fc 3d d8 cf 11 3e 05 02 87 3d
       0.12745604 0.12328528 0.14239442 0.06592182
0001d0 16 14 86 3d 35 2b 01 be 10 3f 28 bd c4 c3 e5 3d
       0.065468 -0.12614138 -0.041075766 0.1121898
0001e0 ef 4c 71 3d c9 74 d5 3d 59 f1 41 bd 32 7f 78 3d
       0.05891126 0.104226656 -0.047349308 0.060668178
0001f0 6b 85 04 3d f6 97 b2 3d 7a 4b af 3d 86 da 01 bd
       0.0323538 0.087203905 0.08559318 -0.03170254
000200 8f 89 9a 3d f1 a7 7e 3c 22 03 ae 3d a8 c4 f6 bd
       0.075457685 0.01554297 0.08496691 -0.12049228
000210 08 d2 0f bd c7 bd e3 38 6a 54 28 bd a3 0a 0d be
       -0.03511241 0.00010859552 -0.04109613 -0.13773589
000220 29 1f bb 3b c7 ad f1 bb 52 71 62 bd d3 a5 ae 3b
       0.0057105017 -0.007375452 -0.055283852 0.0053298264
000230 b0 ab a6 3d c4 55 02 3e 2a 8a 40 3d fc d5 ab bd
       0.081382155 0.1272803 0.047006764 -0.08390424
000240 ec f4 a3 3d b2 d7 61 bc b9 62 5a 3e c5 99 22 3e
       0.080056995 -0.013784336 0.21326722 0.15878971
000250 67 e2 14 3e 3a 54 e0 3c 04 ae be 3d 9b db 0f bd
       0.1453949 0.027383912 0.093105346 -0.03512154
000260 b3 0c 70 bd ee d4 7d 3b 45 75 9b bd d9 57 97 3c
       -0.05860586 0.0038731652 -0.07590727 0.018474506
000270 c0 e4 a8 3c 33 5f c5 3d 26 aa e9 bc 12 3d 1c 3d
       0.020616889 0.096372984 -0.028523516 0.03814418
000280 43 13 2d 3d 51 5d 18 3c a2 52 a8 bc 23 b6 d1 3d
       0.042254698 0.009299592 -0.020547215 0.10239818
000290 79 15 03 be 8a 06 af bd 86 f8 9c bd 00 e7 8e bd
       -0.1280116 -0.08546169 -0.076645896 -0.069776535
0002a0 8f 11 5f 3e 11 2b fb bd ad a4 ac 3b 2c ba c3 bd
       0.21784042 -0.12264074 0.0052686543 -0.09556994
0002b0 56 a5 f6 3d 8f ee 6b 3c 3d 0e ed bd 94 d3 cf bd
       0.12043254 0.0144001385 -0.11574981 -0.10147777
0002c0 5f 90 fa bc e6 2f 3a 3e e0 bd b4 3d ef ea b1 ba
       -0.03058642 0.18182334 0.08825278 -0.0013574044
0002d0 2e 7e fd bd 6c a0 8f bd 97 8c 0d be bb 0a 68 bd
       -0.123775825 -0.0701302 -0.13823162 -0.05665086
0002e0 fc ae b8 3d d7 fa c1 bd 8c 48 52 bd 64 a2 02 3c
       0.090177506 -0.09471672 -0.051338717 0.007973287
0002f0 5d 60 c7 3d 1f 1f ac bd 33 21 1e bd a2 aa 42 3b
       0.09735177 -0.084043734 -0.03860588 0.0029703756
000300 de a0 30 3e 87 93 08 3d c0 41 0e bd 05 aa 36 3d
       0.17248866 0.033343818 -0.034730673 0.044595737
000310 2b be 0c 3d 9d 14 98 3d 83 3a a8 3c ef d5 b6 3d
       0.034361046 0.07425807 0.020535713 0.08927523
000320 dc 40 fe bd 8c 80 07 be 72 ff 42 3e 4c 72 e5 3b
       -0.12414715 -0.1323263 0.19042757 0.0070021506
000330 28 76 d3 3d ea d7 96 bd aa 82 ad bd 90 90 b2 bd
       0.10325271 -0.07365401 -0.08472188 -0.08718979
000340 58 c4 a1 3c 9a 5d e2 3c 00 9c 48 be 63 1e 17 be
       0.019746944 0.027632523 -0.1959076 -0.14757685
000350 78 c2 b7 3d 07 9d d8 3d ec eb 81 bc b8 2e 9e 3b
       0.08972639 0.105768256 -0.015859567 0.0048273467
000360 4c 0e 0b 3e e0 be f8 3d 11 56 13 3e 1f b2 43 3d
       0.13579673 0.121457815 0.143883 0.04777729
000370 67 af 50 bd 93 96 4a bd 45 31 15 3d 20 51 fb ba
       -0.050948527 -0.049460005 0.03642394 -0.0019173957
000380 a4 bf d1 3d cb bf bd 3d e3 dd 17 be 5e 02 b6 3d
       0.10241631 0.09265097 -0.14830737 0.0888717
000390 de 7a 68 3d 9d e5 05 3d 76 44 e2 3b 36 21 9b bc
       0.0567578 0.03268968 0.006905134 -0.018936735
0003a0 54 0c e4 bd a9 40 1f 3e fe 56 84 bd 94 d6 0a 3d
       -0.11135164 0.1555201 -0.06461905 0.033896044
0003b0 dc 3c b3 bc 70 65 d9 bd 80 1b 2a 3e bc 25 ab 3d
       -0.021879606 -0.10615051 0.16612053 0.08356807
0003c0 60 a0 5d 3d 93 a9 ed bd c8 1e c5 3d 2a b4 e7 3c
       0.054108024 -0.11604609 0.09625012 0.028284151
0003d0 54 a2 62 bd cb 89 3d bd c0 cb 2e 3d 16 0f 6b 3d
       -0.05533059 -0.046273988 0.04267478 0.057387434
0003e0 a9 be 3b bc a1 cf 60 3d 5b 3e 04 3e f7 71 89 3d
       -0.011459031 0.05488551 0.12914412 0.0671119
0003f0 10 54 34 3e 40 9e a7 bd f9 87 ee bd 54 07 9d bd
       0.17610192 -0.08184481 -0.116470285 -0.07667413

l2.bias f4 [64]
000000 e7 e2 01 3d 79 37 b4 bd fc 3b 4b 3e 82 2b 27 bd
       0.03171053 -0.08799643 0.19847101 -0.040812977
000010 ec d3 6f bc 3a 13 47 3d 45 b8 0a be e6 7a a5 3d
       -0.014637928 0.04860232 -0.13546856 0.08080082
000020 2f 25 bf 3d fd 25 64 bc d1 39 ae bd 58 ce fd bc
       0.09333264 -0.013925073 -0.08507121 -0.030982181
000030 1c 47 1d 3d ef a0 48 3d e3 c4 4d 3c f6 c8 f1 3c
       0.038397893 0.048981603 0.0125591485 0.029514771
000040 4e 93 9b 3d 4a 4a fe bb e8 b4 4f 3d a7 92 32 bd
       0.075964555 -0.007760321 0.050709635 -0.04359689
000050 81 3a 53 bc 8b f2 f9 3d e0 13 de 3d 41 b0 ea 3d
       -0.012892366 0.122044645 0.108436346 0.11459399
000060 0a 59 1d 3d 88 3f a2 3d c4 7a 17 3e 8c 50 b3 3c
       0.038414992 0.07922274 0.14792925 0.021888994
000070 09 05 32 3d 82 0f 65 bb bf 28 d9 bd 09 13 6b 3d
       0.043461833 -0.003495187 -0.10603475 0.0573912
000080 ef 7a f0 bd 42 43 52 3d 83 dd a1 3d b1 b2 84 bd
       -0.11742198 0.051333673 0.07903578 -0.06479395
000090 b2 03 c5 3c 1d 05 14 bb db 08 f9 3d 02 2b 8b bd
       0.024049614 -0.0022586056 0.12159892 -0.067953125
0000a0 58 3f 56 3e 80 42 08 3d 4d 9b 38 3e 60 72 65 3d
       0.20922601 0.033266544 0.18027993 0.05601728
0000b0 4e 36 f2 3d 6d 9d 1f 3d e9 2c b8 3d 47 8c 94 bd
       0.11826764 0.038968492 0.08992941 -0.07253318
0000c0 bf aa c4 bc 2c b7 3c 3e 67 ec bf bd b1 3e b5 bd
       -0.0240072 0.1842925 -0.09371262 -0.08849848
0000d0 92 d2 6d 3c 7c 71 c9 3d 3d 28 b7 3c d7 77 54 3d
       0.014515536 0.098360986 0.022358054 0.0518721
0000e0 99 1b c0 3d 05 66 8d bd 44 d3 eb 3c 76 f8 25 3d
       0.09380264 -0.06904224 0.028787263 0.040520154
0000f0 c0 95 b1 3c 5c ad ee 3c 52 65 8b 3d cd b0 30 3e
       0.021677852 0.029135399 0.06806435 0.17254944

l3.weight f4 [10, 64]
000000 b5 03 a7 be a8 70 b0 3e 0f b3 5d 3e 87 d9 88 bd
       -0.32620016 0.3446095 0.21650337 -0.06682115
000010 ff 55 d1 be 72 b1 42 be ae 9e 36 3e aa 70 d5 3d
       -0.40885922 -0.19013003 0.17833969 0.104218796
000020 7f eb 7d 3e b5 07 e9 3d 3e 00 17 be d8 6a 4a be
       0.24796866 0.11378423 -0.14746186 -0.1976732
000030 df 69 f9 bd af 7b 3b bd 1d 68 5c be b0 40 9b 3d
       -0.121783964 -0.04577225 -0.21524091 0.075806975
000040 d3 f0 e9 3d 77 c2 cd bd b1 32 ab bd 3b d6 a5 3e
       0.11422887 -0.10046857 -0.08359278 0.32390007
000050 54 d8 41 3e c2 3c 95 3e 59 e8 aa 3d 42 eb 55 be
       0.18930179 0.29147917 0.08345098 -0.20890525
000060 9a ae 46 3b 92 4f 9c 3e f1 be 49 be 00 a6 4c 3e
       0.0030316473 0.30529457 -0.19701745 0.19985199
000070 b1 bf 41 bc 44 0b 91 be 1e 83 03 be 35 de 90 3d
       -0.011825488 -0.28328907 -0.12842986 0.07073633
000080 80 c0 71 3e 06 17 3c 3a 65 48 b9 bc e6 b2 32 bd
       0.23608589 0.00071750616 -0.022617528 -0.043627642
000090 68 81 21 be ea fb ae bd 94 dd b8 be 5e 84 87 be
       -0.15772021 -0.085441425 -0.3610655 -0.26468176
0000a0 86 c4 40 3e c0 88 36 3d 29 21 cb bc d1 22 d0 be
       0.18824968 0.04456401 -0.024796085 -0.40651563
0000b0 23 7c 52 be 48 5b 31 be 15 02 83 bd e8 c6 84 3e
       -0.20555167 -0.17319977 -0.063968815 0.25933003
0000c0 29 fb 33 be 9a 5d 2f 3d 9a fc 83 3e 9a 10 17 3e
       -0.17576279 0.042813875 0.25778657 0.14752427
0000d0 03 8a 82 bd 74 1f e3 3d d8 63 6d bd db d8 23 3e
       -0.0637398 0.110899836 -0.057956547 0.16000693
0000e0 9c 9f 9c be b2 b7 8e 3e 37 38 40 be 83 32 94 3e
       -0.30590522 0.27874523 -0.18771444 0.28944787
0000f0 a2 53 4b bd ea b0 40 be 48 23 56 3d 4a 51 d1 38
       -0.049640305 -0.18817487 0.05227974 9.981038e-05
000100 c8 16 d2 bb 97 fe 8f be a4 bc 98 be ba a9 89 bb
       -0.006411407 -0.28123924 -0.2983142 -0.004201141
000110 5a 08 91 3e 87 60 3e be a8 ba e6 3d 81 53 34 3e
       0.28326684 -0.1859151 0.112660706 0.17609979
000120 64 3c c2 be 5e e7 15 be 1e 94 b2 3e ef aa 05 be
       -0.379367 -0.14639041 0.3487863 -0.13053487
000130 2e a1 77 3e 88 59 cc 3e 57 58 13 3e e1 0d bb 3d
       0.24182579 0.39912057 0.14389168 0.091335066
000140 ff 5a 4c 3e a0 2f bb 3d e3 d1 13 3e 54 45 bc be
       0.19956587 0.09139943 0.14435534 -0.36771643
000150 10 42 71 be 0f 06 19 bc 78 56 16 be 43 16 b0 3e
       -0.23560357 -0.009339823 -0.14681423 0.34391984
000160 d9 a9 6d 3d 37 80 77 be 39 d9 10 be 6d 11 3f bc
       0.058023307 -0.24170004 -0.14145364 -0.0116618695
000170 e6 b5 82 bd ef 2e 52 bd 80 8a 52 3d df b0 24 be
       -0.063823506 -0.05131429 0.051401615 -0.16083096
000180 7e 35 d6 3d 0a 99 96 bd d5 e1 6b be c5 37 e3 3d
       0.104594216 -0.07353409 -0.23035367 0.110946216
000190 53 a9 ac 3d d8 13 74 be 2c d4 6b bd 3d a5 23 3e
       0.084307335 -0.23835695 -0.05757539 0.15981002
0001a0 7d e2 c6 bc 89 6e 64 be 6f 67 8e 3e c3 36 e8 bd
       -0.02427792 -0.22307791 0.2781329 -0.1133857
0001b0 82 d4 8f be 40 a5 87 3e 47 9a c6 3e 86 28 d2 3d
       -0.28091818 0.26493263 0.3878958 0.102616355
0001c0 32 07 8c be b4 63 b0 3c e4 74 0d be 17 38 65 3e
       -0.2734924 0.021531917 -0.13814121 0.22384678
0001d0 0a 00 ec 3c 9a ad 53 be b9 b5 16 be 79 c7 16 be
       0.028808612 -0.20671692 -0.14717759 -0.1472453
0001e0 6d 1a 88 3e 48 53 95 bd 84 80 c4 bd d0 d3 6f be
       0.2658266 -0.07291275 -0.09594825 -0.23420644
0001f0 7a 43 60 be a2 c3 27 3e a3 90 be 3d fd ef d4 3d
       -0.2190074 0.16383222 0.09304931 0.10397337
000200 b0 d9 61 3e fd fd 15 be 9b 3f 13 be 8c f2 af 3e
       0.22055697 -0.1464767 -0.14379732 0.34364736
000210 33 bd f4 3d 7f 78 b3 3d 87 1d 19 3e d3 da 25 3e
       0.119501494 0.08763217 0.1495267 0.16196756
000220 6d 01 05 be b0 00 6e be 36 8e 09 3e 33 ee f3 bd
       -0.12988825 -0.2324245 0.13433155 -0.11910667
000230 62 22 3a be 17 e3 41 bd c9 44 78 be aa 2e 52 bd
       -0.18177179 -0.04733571 -0.2424499 -0.051314034
000240 16 c8 f6 bd f1 5e d1 3d 7d c3 cf be da 84 58 3d
       -0.12049882 0.10223187 -0.40578833 0.052861072
000250 60 8e 76 3e 7c aa b4 3c b1 e1 eb 3e 79 21 d9 be
       0.24077749 0.02205395 0.46070626 -0.4240835
000260 91 81 b0 3e af 5f cc bd 05 33 7f 3d 42 9a 31 3e
       0.3447385 -0.09979188 0.062304515 0.17344001
000270 8c 08 0f 3e e3 be ce bd ad 17 ed bd 06 41 b6 bd
       0.13968104 -0.100950025 -0.115767814 -0.08899121
000280 76 80 5f 3d 47 d2 14 be 90 f0 53 bd 32 97 84 3c
       0.05456587 -0.1453334 -0.05174309 0.016185377
000290 09 98 81 3e e1 dc ba 3e 5e b6 1e bd 7b 2a 87 3d
       0.25311306 0.36496642 -0.038748138 0.065998994
0002a0 be d9 03 be 25 af 38 3e e8 02 a9 be bc 59 fe 3d
       -0.12876031 0.18035562 -0.3301003 0.12419459
0002b0 6d 15 ae 3c 2d 87 25 be af b4 11 3e 32 5a d3 3e
       0.021250451 -0.16164847 0.14229082 0.4127975
0002c0 f5 af 94 bd a8 fe 63 be 3c 46 6d 3e 1f 5f 05 be
       -0.07260124 -0.22265112 0.23171324 -0.13024567
0002d0 38 37 c6 bd cb cd b7 bd 5c 68 16 3e 3c fc 18 bd
       -0.09678501 -0.08974799 0.14688247 -0.037349924
0002e0 9f ce 4d 3e b9 d1 91 3e bb cb bb 3e d9 ab 59 be
       0.20098351 0.28480318 0.36678872 -0.21256961
0002f0 c5 b5 2d 3e 51 07 c9 bd c3 30 0d 3e 4b 62 37 be
       0.16963871 -0.098158486 0.13788132 -0.1790859
000300 e5 a8 82 3d 08 b5 43 be 46 7e e4 3d 8e 70 09 be
       0.0637987 -0.19112027 0.11156897 -0.13421842
000310 c1 50 09 3e 92 7e 80 3e c0 5c f9 3d 03 e5 88 3c
       0.13409711 0.25096565 0.12175894 0.016710764
000320 5e 2d 92 be 29 07 e6 3d a4 09 32 3e d7 e9 b6 3d
       -0.28550237 0.112318344 0.1738649 0.0893132
000330 dd 32 28 3e b0 69 9c 3e e1 b2 14 3e 1c a2 21 3e
       0.16425653 0.30549383 0.14521362 0.15784496
000340 ee e2 2b be b7 02 88 3e fe 79 17 3e 5b 58 3e 3e
       -0.16785786 0.2656457 0.1479263 0.18588392
000350 76 30 f8 bd 52 60 09 be ff ce dd 3e af 30 36 3d
       -0.12118618 -0.1341565 0.43321988 0.044480022
000360 1c 2d 80 3e da ba 95 3d 4c 0b ea bd 14 35 64 bd
       0.25034416 0.0731103 -0.11427936 -0.05571468
000370 62 81 be bd 06 19 19 be 43 07 d0 3d 33 88 39 bd
       -0.093020216 -0.14950952 0.10157635 -0.045295905
000380 b5 e9 57 be 0f 28 16 bc 24 bd 3b 3e dd 2f a4 be
       -0.21085246 -0.009164824 0.1833387 -0.32067767
000390 f2 91 c5 bd c0 27 a1 bd 37 7e 84 3e f5 06 01 3e
       -0.096469775 -0.0786891 0.25877544 0.1260031
0003a0 8f bd a5 3e 72 5b 96 be 94 35 9d be 76 99 2a 3e
       0.32371184 -0.29366642 -0.3070494 0.16660103
0003b0 5c af e7 3c e6 36 06 bf 55 20 c9 3d ee f1 bb 3d
       0.02828186 -0.5242752 0.0982062 0.09177004
0003c0 b4 0a ba be dd 0f d0 be 9e 4c cb 3b 99 56 d6 3d
       -0.3633629 -0.40637103 0.006204202 0.10465736
0003d0 51 ac c4 be 31 dc 7f 3e 1c ef 02 3e ef 83 3a 3e
       -0.38412717 0.2498634 0.12786525 0.18214391
0003e0 2a 2a 7a bd 64 3d 43 3e cf 05 9e 3d 93 30 33 be
       -0.061075367 0.19066387 0.07715952 -0.17498998
0003f0 61 d6 6e 3d 38 f4 ae 3c d6 e0 bf bc 4e 62 cd 3c
       0.058309916 0.021356687 -0.02342264 0.02507129

l3.bias f4 [10]
000000 b7 4e c5 bd d1 09 73 3d 5d f3 5c bd 7b cc 24 be
       -0.09634154 0.059335534 -0.053943027 -0.16093628
000010 d9 25 66 3d a2 91 2d 3e 85 80 4a 3d 51 8d 06 3e
       0.056188438 0.16950086 0.049438972 0.13139845
000020 c3 ed 11 be 1b 8f ed bc
       -0.14250855 -0.028998902
